pytorch_chatbot_model/data.pth (torch, 8255 bytes, 6 tensors)

l1.weight f4 [8, 111]
0	0x3f34d204	0.7063296
1	0xbee923f6	-0.4553525
2	0xbee44743	-0.44585618
3	0x3dfdf068	0.123993695
4	0x3f632279	0.88724476
5	0x3eda12cb	0.42592463
6	0xbeda26cc	-0.42607725
7	0x3de1bc43	0.11022236
8	0x3e595a29	0.212258
9	0x3efd0914	0.4942099
10	0xbe89e269	-0.2693055
11	0x3f582ab3	0.84440154
12	0x3da3869c	0.07984659
13	0x3cc193c2	0.023630027
14	0x3ef4ec0f	0.47836348
15	0x3fb34539	1.40055
16	0x3f4d33d7	0.80157226
17	0x3e8d28d1	0.27570203
18	0x3e346c41	0.1761942
19	0xbf2e497f	-0.68080896
20	0xbe2565cc	-0.16152114
21	0x3ef2a1b1	0.47388986
22	0xbf16ff0c	-0.5898292
23	0x3f40ed96	0.7536253
24	0xbe1eeade	-0.15519282
25	0xbec89281	-0.39174274
26	0x3f4a8902	0.7911531
27	0x3f3d4eac	0.7394817
28	0xbf5b2f2c	-0.85618854
29	0xbecadb87	-0.3962061
30	0xbec52177	-0.38502094
31	0x3e5b1477	0.21394525
32	0xbdc06f96	-0.09396283
33	0x3f691d89	0.9106069
34	0x3fa89be0	1.3172569
35	0x3f3efa66	0.7460083
36	0x3f17762f	0.5916471
37	0x3f527fca	0.8222624
38	0x3f2eb874	0.68250203
39	0xbbb44f47	-0.0055026147
40	0x3eb53881	0.35394672
41	0x3f7fc8ba	0.9991566
42	0x3ea1acbc	0.31577098
43	0x3e9fc9b6	0.3120858
44	0x3f340163	0.70314616
45	0x3e83edcd	0.25767365
46	0x3f02b155	0.5105184
47	0xbe02ca22	-0.1277242
48	0x3f280377	0.65630287
49	0x3e22e0c4	0.15906054
50	0xbe8f9641	-0.28044322
51	0x3e44280f	0.19155906
52	0xbe143801	-0.14474489
53	0xbf669677	-0.9007334
54	0xbee2212c	-0.44165933
55	0x3f1549d5	0.58315784
56	0xbf26d7e2	-0.6517316
57	0xbf175a50	-0.5912218
58	0xbe7f861c	-0.24953502
59	0x3ee86162	0.45386797
60	0x3ecbce89	0.3980601
61	0x3ed39eee	0.4133219
62	0x3f3ba28f	0.7329492
63	0x3f29a566	0.66268003
64	0x3e5ea83a	0.21743861
65	0xbf38e95d	-0.72231084
66	0x3f8f35cb	1.1188291
67	0xbe21a842	-0.15786842
68	0x3f962d5f	1.1732596
69	0xbe03ddc4	-0.12877566
70	0x3dd50845	0.10401968
71	0xbeb6c781	-0.35699084
72	0x3f61df9c	0.88231826
73	0x3fa02668	1.2511721
74	0xbf584c65	-0.8449157
75	0xbdff3277	-0.12460797
76	0x3f0c673f	0.5484504
77	0x3ebe6c8c	0.3719219
78	0x3f0526cf	0.5201234
79	0x3f876d81	1.0580293
80	0xbf5757e3	-0.8411848
81	0x3f7adb56	0.9799093
82	0x3e48d170	0.19611144
83	0x3eb7a35e	0.35866827
84	0x3f4f88fc	0.81068397
85	0x3e8da92f	0.2766814
86	0x3f7ca3bc	0.9868734
87	0x3e462be0	0.19352674
88	0x3ff345c4	1.9005666
89	0x3f4a5e4d	0.7905014
90	0xbd85b1a4	-0.06528023
91	0x3f417aaa	0.75577796
92	0x3eafaaf8	0.34310126
93	0x3f22c71e	0.6358508
94	0xbf92035f	-1.1407279
95	0x3e73d15f	0.23810337
96	0xbf7058d5	-0.93885547
97	0xbed60050	-0.41797113
98	0x3e07b61c	0.13253063
99	0x3e972a63	0.29524526
100	0xbea8c677	-0.32963917
101	0x3f48c33c	0.78422904
102	0x3d6b4243	0.05743624
103	0x3f0468d8	0.5172248
104	0x3d8905cd	0.066905595
105	0x3fa68272	1.3008559
106	0xbdd933b4	-0.10605565
107	0x3e03fed5	0.1289018
108	0xbd9ccf36	-0.0765671
109	0x3f71d65f	0.9446773
110	0xbf6edb3f	-0.93303293
111	0x3f2288ab	0.6348979
112	0xbd81cc33	-0.06337776
113	0xbf1a61e1	-0.603056
114	0x3f9bdb01	1.217621
115	0xbe507399	-0.20356597
116	0x3e375082	0.17901805
117	0xbeca40a0	-0.3950243
118	0xbd4bd58c	-0.0497642
119	0x3f8acf44	1.0844502
120	0x3f296bae	0.6617993
121	0xbed211e5	-0.41029277
122	0xbe215dde	-0.15758464
123	0x3f8e9b9d	1.114124
124	0xbe9d2884	-0.30694973
125	0x3ee58670	0.4482913
126	0xbed9551b	-0.42447743
127	0x3f8a1d60	1.0790215
128	0x3b89f9b8	0.004210677
129	0x3e4fede1	0.20305587
130	0x3e04ae7c	0.12957186
131	0xbeaf8bb6	-0.34286278
132	0xbd93dc45	-0.072197475
133	0x3f689acd	0.9086121
134	0x3f80ca3b	1.0061716
135	0x3f23401c	0.637697
136	0xbeeef7ec	-0.46673524
137	0xbf7ef7c4	-0.9959681
138	0xbe09ecae	-0.13469192
139	0x3cfaf4c5	0.030634293
140	0xbf0bc029	-0.5459009
141	0x3e5cabe1	0.21549942
142	0xbdf08b13	-0.11745276
143	0x3eacc5cf	0.33744666
144	0xbee7b5fa	-0.45256025
145	0xbf2f3575	-0.68440944
146	0xbf4d1cd6	-0.80122125
147	0xbd9130ac	-0.070893615
148	0xbec7274e	-0.38897175
149	0x3f8c834d	1.097757
150	0x3b0f17e3	0.0021834306
151	0xbedf11b6	-0.435682
152	0x3debaaae	0.11507164
153	0xbef979d5	-0.48725763
154	0xbf06ea02	-0.5270082
155	0x3f16567a	0.587257
156	0x3f8df4dd	1.1090351
157	0xbf4e5ef6	-0.8061365
158	0x3e7e81d1	0.24854209
159	0xbef83f5e	-0.48485845
160	0xbd8bdce2	-0.068292394
161	0xbecc919d	-0.39954844
162	0x3f34b963	0.7059538
163	0x3e99fda6	0.3007633
164	0x3d5f380f	0.05449682
165	0xbda6421e	-0.081180796
166	0x3f48410b	0.7822425
167	0x3e2f1099	0.17096175
168	0x3db58b37	0.08864444
169	0x3c92b3ad	0.017907942
170	0x3ea3de95	0.32005754
171	0x3ec24f64	0.37951195
172	0xbe91fcd6	-0.2851321
173	0x3f5546f8	0.83311415
174	0x3f089bab	0.5336253
175	0x3f8e6395	1.112414
176	0x3b96c612	0.0046012485
177	0xbf26590f	-0.6497964
178	0x3ed71f61	0.42016128
179	0x3fa671ca	1.3003476
180	0xbefe8e90	-0.49718142
181	0xbebb773a	-0.366144
182	0xbef74f50	-0.48302698
183	0x3fc0d775	1.5065752
184	0xbf884ce0	-1.064846
185	0x3f5652b2	0.83719933
186	0xbe76214c	-0.24036139
187	0xbf759e2d	-0.9594448
188	0x3f2d65b8	0.67733335
189	0x3f803d3e	1.001869
190	0xbf885ee0	-1.0653954
191	0xbd52c34e	-0.05145579
192	0xbef3de22	-0.4763041
193	0xbf7bfab6	-0.9842943
194	0xbe5a12cb	-0.21296231
195	0xbf808018	-1.0039091
196	0xbf876d60	-1.0580254
197	0x3ef48edc	0.47765243
198	0x3f7b0720	0.98057747
199	0x3ea3fa58	0.32026935
200	0x3f2743b8	0.65337706
201	0x3e083f8e	0.13305494
202	0xbf08878a	-0.53331816
203	0x3ea9daed	0.3317484
204	0x3f8c69e3	1.0969814
205	0x3fb404d2	1.4063971
206	0x3f419305	0.7561496
207	0x3d80305b	0.06259223
208	0x3e77c7af	0.24197267
209	0xbf16d60c	-0.5892036
210	0x3d3bfb75	0.045894105
211	0xbf06b641	-0.5262185
212	0x3ecfc225	0.40577808
213	0xbd30cff8	-0.043167084
214	0x3ebd4145	0.3696386
215	0x3f8c3b03	1.0955509
216	0xbf8850ca	-1.0649655
217	0x3d78207a	0.060577847
218	0xbd27e08c	-0.04098563
219	0xbe883d6e	-0.26609367
220	0x3ee9dabf	0.45674703
221	0x3f4f7dd2	0.8105136
222	0x3e920a0e	0.28523296
223	0xbf664590	-0.89949894
224	0x3bdfbc90	0.0068278983
225	0xbf2e9373	-0.6819374
226	0xbf793094	-0.9733975
227	0x3ea92cee	0.3304209
228	0xbee5c2dd	-0.4487523
229	0x3ea68234	0.32521212
230	0xbf86501b	-1.0493196
231	0xbecdd894	-0.40204298
232	0x3f5ceae2	0.862959
233	0x3e9efabe	0.31050676
234	0xbf293e2a	-0.6611048
235	0xbf362e01	-0.71163946
236	0x3ee13317	0.4398429
237	0xbf79440a	-0.97369444
238	0xbf128b08	-0.57243395
239	0x3e72d925	0.23715647
240	0x3ece061e	0.40239042
241	0xbf17aa6c	-0.5924442
242	0xbeaffe33	-0.34373626
243	0x3f2a3522	0.66487324
244	0x3f07c8c6	0.5304073
245	0xbee6f92c	-0.45111978
246	0x3e075c8d	0.13218899
247	0x3f6115f4	0.8792412
248	0x3e4e85cb	0.20168225
249	0x3f2b3ec8	0.6689267
250	0x3f869c4a	1.0516446
251	0xbf301089	-0.6877523
252	0xbeb5a5be	-0.35478014
253	0xbedff0e2	-0.43738467
254	0xbd178d58	-0.03700003
255	0x3f090142	0.53517544

l1.bias f4 [8]
0	0x3fc5b136	1.5444705
1	0x3f885087	1.0649575
2	0x3f793aac	0.9735515
3	0x3f4388b1	0.7638045
4	0x3f8bf269	1.0933353
5	0x3f8f23c8	1.1182795
6	0x3fb4c3e0	1.4122276
7	0x3f621b04	0.8832247

l2.weight f4 [8, 8]
0	0x3f105bdb	0.5639016
1	0x3e0a40a3	0.1350122
2	0x400c25d1	2.1898081
3	0x3f7b22cd	0.98099977
4	0xbe9f1d60	-0.310771
5	0xc006bb93	-2.1051986
6	0x3f975aa5	1.1824538
7	0xbf33f6a7	-0.70298237
8	0x403e10e8	2.9697819
9	0x3fc29444	1.5201497
10	0x3f88d29b	1.0689272
11	0x3f954985	1.1663061
12	0xbf60fb6a	-0.8788363
13	0x400acee2	2.1688771
14	0xbfa10e87	-1.2582558
15	0xbf4eb399	-0.80742794
16	0x3f943f15	1.1581751
17	0x4008a177	2.134855
18	0xbf466ea7	-0.7751259
19	0xbe77dc77	-0.24205194
20	0x3fcdc61e	1.6076086
21	0xbf971c9a	-1.1805604
22	0xbf8e32f9	-1.1109306
23	0x3facdaaf	1.3504237
24	0xbe1d4b88	-0.15360844
25	0xbe3be8ac	-0.18350476
26	0xbe6fd722	-0.2342191
27	0xbe95d5bb	-0.29264626
28	0xbe0876d5	-0.13326581
29	0xba6a5c00	-0.00089401007
30	0xbc95afb0	-0.01827225
31	0x3b8c2000	0.0042762756
32	0xbf5c60de	-0.8608531
33	0x3fa4741e	1.2847936
34	0x3f428f0a	0.7599951
35	0x3fc6dc4f	1.5535983
36	0x3f63ce21	0.889864
37	0x40144160	2.3164902
38	0x3f4dd13f	0.8039741
39	0x3ee3a42c	0.4446119
40	0x3d3f3368	0.046679884
41	0x3f99f67d	1.2028347
42	0xbfb2b36a	-1.3961003
43	0x3f978e04	1.1840215
44	0x3f270397	0.6523985
45	0xbf79f5ac	-0.9764049
46	0x4029a5e1	2.6507494
47	0xbf7f00de	-0.996107
48	0x3fbdf292	1.4839652
49	0xbfe52c21	-1.7904092
50	0x3fa9bf7a	1.3261559
51	0xbfb8757b	-1.4410852
52	0x3f0ae297	0.54252
53	0x3ed497b2	0.41521984
54	0x3fb20d7d	1.3910366
55	0x3fce2777	1.6105794
56	0xbee68e11	-0.45030263
57	0x3ed8af60	0.423213
58	0x3ffa6849	1.9563075
59	0xbf8977ae	-1.0739648
60	0x40394151	2.8946116
61	0xbeb2d57c	-0.349285
62	0x3f4c7232	0.7986175
63	0x3f4a879a	0.7911316

l2.bias f4 [8]
0	0xbe49dc0c	-0.19712847
1	0x3f2f1466	0.683905
2	0x3f6038e1	0.8758679
3	0xbe5386d2	-0.20656899
4	0x3e4148f8	0.18875492
5	0x3f81821e	1.0117834
6	0x3f5cae73	0.8620369
7	0xbe9097af	-0.28240725

l3.weight f4 [21, 8]
0	0xc0394057	-2.894552
1	0xc00d931c	-2.2121038
2	0x3f49d7c4	0.7884486
3	0xbd4069f0	-0.04697603
4	0xbea61f1c	-0.3244561
5	0x3e298427	0.16554318
6	0x3f402612	0.7505809
7	0x3e90a3c4	0.28249943
8	0xbf5bd676	-0.85874116
9	0x3ebb83b2	0.36623913
10	0x3f2dcdf5	0.6789239
11	0x3e236e66	0.15960082
12	0xc019a6f9	-2.4008162
13	0xc0305401	-2.7551272
14	0x3f4f8336	0.81059587
15	0xbff089e7	-1.8792084
16	0x3d740c4c	0.05958204
17	0x3ecd2125	0.4006435
18	0x3f2bb4bf	0.6707267
19	0x3dfc5108	0.12320143
20	0xbe66da33	-0.22544174
21	0x3f12e496	0.57380044
22	0xc020f0b0	-2.5146904
23	0xc0404113	-3.0039718
24	0xc00b208b	-2.1738613
25	0x3f669917	0.90077347
26	0xbe2d41fb	-0.16919701
27	0xbd164aa8	-0.03669229
28	0x3ec7c7d5	0.39019647
29	0xbfe675c1	-1.8004686
30	0xbf9671be	-1.1753461
31	0xc0247859	-2.5698454
32	0x3e1b7241	0.15180303
33	0x3dc896a7	0.0979436
34	0x3e12daa0	0.14341211
35	0xbe6e4c1c	-0.23271221
36	0xbec62604	-0.3870088
37	0x3eca05e0	0.39457607
38	0xbfeff273	-1.8745865
39	0xbea28b4f	-0.3174691
40	0xbe9539da	-0.291457
41	0xbde49118	-0.11160487
42	0x3e8b858e	0.27250332
43	0x3e443fa2	0.19164899
44	0xbf577ec5	-0.8417781
45	0x3f0ba0ee	0.54542434
46	0x3e9169ad	0.28400937
47	0xbf8cb36b	-1.0992254
48	0xbe876af2	-0.2644878
49	0xc03825ae	-2.8772998
50	0xbf709344	-0.9397471
51	0x3de3efc8	0.11129719
52	0xbf4a351b	-0.7898728
53	0x3f6ff2a3	0.9372961
54	0x3f14fb1c	0.5819566
55	0x3e472e16	0.19451174
56	0xc00c7a49	-2.1949637
57	0x3d85fc92	0.065423146
58	0xbfa2f346	-1.2730491
59	0x3e1d296a	0.1534783
60	0x3effc982	0.49958426
61	0xbf0a944a	-0.5413252
62	0x3f2da291	0.6782618
63	0xbef9a2c5	-0.48756996
64	0xc016bc45	-2.355241
65	0x3ec77ef5	0.38964048
66	0xbe36d43a	-0.17854396
67	0x3de3148c	0.110879034
68	0x3f374e76	0.71604097
69	0x3eb63855	0.35589853
70	0xc007300d	-2.1123078
71	0xbfd1b23c	-1.6382518
72	0x3e746a5a	0.23868695
73	0xc00a8167	-2.164148
74	0xbf871e75	-1.055617
75	0xbc2ec3e0	-0.010666817
76	0x3efa94cc	0.48941648
77	0x3fa1a86d	1.2629524
78	0xbfa8fa8e	-1.3201463
79	0xbf2de1ae	-0.67922485
80	0x3f6f711c	0.93531966
81	0x3e7ccb71	0.24686982
82	0xbfa80ca9	-1.3128864
83	0xbd3b1450	-0.04567367
84	0xbe5bbaf9	-0.21458043
85	0xbf565f2c	-0.8373897
86	0xbf04ef86	-0.51927984
87	0xbf09b4d1	-0.5379153
88	0xbe3762a4	-0.17908722
89	0xbfa5d18e	-1.2954576
90	0xbfd6fe2e	-1.679632
91	0x3cd97d50	0.026549011
92	0x3f320d63	0.69551677
93	0xbfcbddd0	-1.5927067
94	0x3ee9c5d9	0.45658758
95	0x3e8fbcd5	0.28073755
96	0x3eb4679a	0.35235292
97	0xbf4c6427	-0.7984032
98	0xbc4eefc8	-0.0126304105
99	0xbeaf0fe3	-0.34191808
100	0xbf460301	-0.77348334
101	0xbfb78663	-1.4337887
102	0x3ee9284d	0.4553856
103	0x3f04597a	0.5169903
104	0xbff66c7c	-1.9251857
105	0xbf7a7bcc	-0.9784515
106	0x3f4ade7d	0.7924574
107	0xbe425d42	-0.18980888
108	0x3f2a05db	0.66415185
109	0xbdf37807	-0.11888128
110	0xbfd64d7b	-1.6742395
111	0xbd776566	-0.060399435
112	0xc0099177	-2.1495035
113	0x3f00fd08	0.50386095
114	0x3f58664a	0.8453108
115	0x3dcf8e24	0.10134533
116	0xbf1d61bb	-0.6147725
117	0x3d90486f	0.070450656
118	0xbfda45b5	-1.7052523
119	0xbf2e419c	-0.6806886
120	0x3eab5f36	0.33471078
121	0x3f6acbe2	0.9171735
122	0xbfce6c04	-1.6126714
123	0x3c492240	0.012276232
124	0xbec9bf94	-0.39403975
125	0xc007c7fc	-2.121581
126	0x3ec907f4	0.3926388
127	0xc02d6f20	-2.7099075
128	0xc01bf085	-2.4365551
129	0xbf5e0bd7	-0.86736816
130	0x3e7a0b7f	0.24418448
131	0x3e85ae9f	0.26109788
132	0x3ed5f9ca	0.41792136
133	0xc040110b	-3.0010402
134	0x3dab6ee4	0.0837076
135	0x3f6a9e5f	0.91647905
136	0xbf6f1422	-0.93390095
137	0x3e861c0d	0.26193276
138	0x3f413531	0.7547179
139	0xbe1d7631	-0.15377118
140	0xbddc90fb	-0.1076984
141	0xc0047539	-2.0696547
142	0xbe8c2793	-0.27373943
143	0xbdf667c2	-0.12031509
144	0x3e732295	0.23743661
145	0xbff6c3a8	-1.927846
146	0x3e86ce55	0.26329294
147	0x3e27601a	0.16345254
148	0x3e8e26da	0.27764016
149	0x3d730107	0.05932715
150	0xbf35575a	-0.7083641
151	0x3e7a6f1f	0.24456452
152	0xbd0cdd0b	-0.03439049
153	0xbcd0cb13	-0.025487458
154	0xbfcb3e98	-1.5878477
155	0x3d144bb0	0.036204994
156	0x3ee2b312	0.44277245
157	0x3f128971	0.5724097
158	0xbf7bd2c3	-0.9836847
159	0xbf53d6b9	-0.82749516
160	0x3f42a97e	0.76039875
161	0xbf3028d5	-0.68812305
162	0xc00a9dc4	-2.1658792
163	0xbe5763e6	-0.21034202
164	0xbeeafdf8	-0.45896888
165	0x3d16920c	0.036760375
166	0x3e6c7fb0	0.23095584
167	0x3e1d0eab	0.15337627

l3.bias f4 [21]
0	0x3e2c2256	0.16809973
1	0x3c29d1b8	0.010364942
2	0xbdfa7518	-0.12229365
3	0x3e879e2c	0.26487863
4	0xbf0ac0d5	-0.5420049
5	0x3f17fbfe	0.59368885
6	0xbe10b11d	-0.14130063
7	0x3e062a52	0.13102081
8	0x3d860768	0.065443814
9	0x3ede9137	0.43470165
10	0xbf14dddf	-0.5815105
11	0x3cf494d8	0.02985613
12	0xbe8158cc	-0.2526306
13	0xbde68080	-0.11254978
14	0xbe054345	-0.13013943
15	0x3ed56278	0.41676688
16	0xbcb52d3b	-0.022116294
17	0xbdb155d4	-0.086589485
18	0xbe77dc52	-0.2420514
19	0x3ddc5058	0.10757512
20	0x3c292946	0.010324782
